…
s=100, device='cuda', load=None, checkpoint='checkpoint.pt', n_embd=384, n_proj=32, vocab=256, seed=3562621360, log='log/log.2025.10.02-11.09.32', verbose=False, date='2025.10.02-11.09.32')
TORCHINFO ===================================================================================================================
Layer (type:depth-idx)                   Input Shape               Output Shape              Param #
===================================================================================================================
CNN_LM                                   [1, 384, 27, 27]          [1, 256, 1, 1]            --
├─Sequential: 1-1                        [1, 256, 1, 1]            [1, 32, 1, 1]             --
│    └─Conv2d: 2-1                       [1, 256, 1, 1]            [1, 32, 1, 1]             8,224
├─CNN_ENCODER: 1-2                       [1, 32, 1, 1]             [1, 384, 27, 27]          --
│    └─ModuleList: 2-2                   --                        --                        --
│    │    └─Upsample: 3-1                [1, 32, 1, 1]             [1, 32, 3, 3]             --
│    │    └─Conv2d: 3-2                  [1, 32, 3, 3]             [1, 32, 3, 3]             9,248
│    │    └─Conv2d: 3-3                  [1, 32, 3, 3]             [1, 32, 3, 3]             9,248
│    │    └─Conv2d: 3-4                  [1, 32, 3, 3]             [1, 32, 3, 3]             9,248
│    │    └─Upsample: 3-5                [1, 32, 3, 3]             [1, 32, 9, 9]             --
│    │    └─Conv2d: 3-6                  [1, 32, 9, 9]             [1, 32, 9, 9]             9,248
│    │    └─Conv2d: 3-7                  [1, 32, 9, 9]             [1, 32, 9, 9]             9,248
│    │    └─Conv2d: 3-8                  [1, 32, 9, 9]             [1, 32, 9, 9]             9,248
│    │    └─Upsample: 3-9                [1, 32, 9, 9]             [1, 32, 27, 27]           --
│    │    └─Conv2d: 3-10                 [1, 32, 27, 27]           [1, 32, 27, 27]           9,248
│    │    └─Conv2d: 3-11                 [1, 32, 27, 27]           [1, 32, 27, 27]           9,248
│    │    └─Conv2d: 3-12                 [1, 32, 27, 27]           [1, 32, 27, 27]           9,248
│    │    └─Conv2d: 3-13                 [1, 32, 27, 27]           [1, 384, 27, 27]          12,672
├─CNN_PROJECTOR: 1-3                     [1, 384, 27, 27]          [1, 384, 27, 27]          --
│    └─Sequential: 2-3                   [1, 384, 27, 27]          [1, 384, 27, 27]          --
│    │    └─Conv2d: 3-14                 [1, 384, 27, 27]          [1, 384, 27, 27]          1,327,488
│    │    └─BatchNorm2d: 3-15            [1, 384, 27, 27]          [1, 384, 27, 27]          768
│    │    └─ReLU: 3-16                   [1, 384, 27, 27]          [1, 384, 27, 27]          --
│    └─Sequential: 2-4                   [1, 384, 27, 27]          [1, 384, 27, 27]          --
│    │    └─Conv2d: 3-17                 [1, 384, 27, 27]          [1, 384, 27, 27]          1,327,488
│    │    └─BatchNorm2d: 3-18            [1, 384, 27, 27]          [1, 384, 27, 27]          768
│    │    └─ReLU: 3-19                   [1, 384, 27, 27]          [1, 384, 27, 27]          --
│    └─Sequential: 2-5                   [1, 384, 27, 27]          [1, 384, 27, 27]          --
│    │    └─Conv2d: 3-20                 [1, 384, 27, 27]          [1, 384, 27, 27]          1,327,488
│    │    └─BatchNorm2d: 3-21            [1, 384, 27, 27]          [1, 384, 27, 27]          768
│    │    └─ReLU: 3-22                   [1, 384, 27, 27]          [1, 384, 27, 27]          --
│    └─Sequential: 2-6                   [1, 384, 27, 27]          [1, 384, 27, 27]          --
│    │    └─Conv2d: 3-23                 [1, 384, 27, 27]          [1, 384, 27, 27]          1,327,488
│    │    └─BatchNorm2d: 3-24            [1, 384, 27, 27]          [1, 384, 27, 27]          768
│    │    └─ReLU: 3-25                   [1, 384, 27, 27]          [1, 384, 27, 27]          --
│    └─Sequential: 2-7                   [1, 384, 27, 27]          [1, 384, 27, 27]          --
│    │    └─Conv2d: 3-26                 [1, 384, 27, 27]          [1, 384, 27, 27]          1,327,488
│    │    └─BatchNorm2d: 3-27            [1, 384, 27, 27]          [1, 384, 27, 27]          768
│    │    └─ReLU: 3-28                   [1, 384, 27, 27]          [1, 384, 27, 27]          --
│    └─Sequential: 2-8                   [1, 384, 27, 27]          [1, 384, 27, 27]          --
│    │    └─Conv2d: 3-29                 [1, 384, 27, 27]          [1, 384, 27, 27]          1,327,488
│    │    └─BatchNorm2d: 3-30            [1, 384, 27, 27]          [1, 384, 27, 27]          768
│    │    └─ReLU: 3-31                   [1, 384, 27, 27]          [1, 384, 27, 27]          --
│    └─Sequential: 2-9                   [1, 384, 27, 27]          [1, 384, 27, 27]          --
│    │    └─Conv2d: 3-32                 [1, 384, 27, 27]          [1, 384, 27, 27]          1,327,488
│    │    └─BatchNorm2d: 3-33            [1, 384, 27, 27]          [1, 384, 27, 27]          768
│    │    └─ReLU: 3-34                   [1, 384, 27, 27]          [1, 384, 27, 27]          --
│    └─Sequential: 2-10                  [1, 384, 27, 27]          [1, 384, 27, 27]          --
│    │    └─Conv2d: 3-35                 [1, 384, 27, 27]          [1, 384, 27, 27]          1,327,488
│    │    └─BatchNorm2d: 3-36            [1, 384, 27, 27]          [1, 384, 27, 27]          768
│    │    └─ReLU: 3-37                   [1, 384, 27, 27]          [1, 384, 27, 27]          --
│    └─Sequential: 2-11                  [1, 384, 27, 27]          [1, 384, 27, 27]          --
│    │    └─Conv2d: 3-38                 [1, 384, 27, 27]          [1, 384, 27, 27]          1,327,488
│    │    └─BatchNorm2d: 3-39            [1, 384, 27, 27]          [1, 384, 27, 27]          768
│    │    └─ReLU: 3-40                   [1, 384, 27, 27]          [1, 384, 27, 27]          --
│    └─Sequential: 2-12                  [1, 384, 27, 27]          [1, 384, 27, 27]          --
│    │    └─Conv2d: 3-41                 [1, 384, 27, 27]          [1, 384, 27, 27]          1,327,488
│    │    └─BatchNorm2d: 3-42            [1, 384, 27, 27]          [1, 384, 27, 27]          768
│    │    └─ReLU: 3-43                   [1, 384, 27, 27]          [1, 384, 27, 27]          --
│    └─Sequential: 2-13                  [1, 384, 27, 27]          [1, 384, 27, 27]          --
│    │    └─Conv2d: 3-44                 [1, 384, 27, 27]          [1, 384, 27, 27]          1,327,488
│    │    └─BatchNorm2d: 3-45            [1, 384, 27, 27]          [1, 384, 27, 27]          768
│    │    └─ReLU: 3-46                   [1, 384, 27, 27]          [1, 384, 27, 27]          --
│    └─Sequential: 2-14                  [1, 384, 27, 27]          [1, 384, 27, 27]          --
│    │    └─Conv2d: 3-47                 [1, 384, 27, 27]          [1, 384, 27, 27]          1,327,488
│    │    └─BatchNorm2d: 3-48            [1, 384, 27, 27]          [1, 384, 27, 27]          768
│    │    └─ReLU: 3-49                   [1, 384, 27, 27]          [1, 384, 27, 27]          --
│    └─Sequential: 2-15                  [1, 384, 27, 27]          [1, 384, 27, 27]          --
│    │    └─Conv2d: 3-50                 [1, 384, 27, 27]          [1, 384, 27, 27]          1,327,488
│    │    └─BatchNorm2d: 3-51            [1, 384, 27, 27]          [1, 384, 27, 27]          768
│    │    └─ReLU: 3-52                   [1, 384, 27, 27]          [1, 384, 27, 27]          --
│    └─Sequential: 2-16                  [1, 384, 27, 27]          [1, 384, 27, 27]          --
│    │    └─Conv2d: 3-53                 [1, 384, 27, 27]          [1, 384, 27, 27]          1,327,488
│    │    └─BatchNorm2d: 3-54            [1, 384, 27, 27]          [1, 384, 27, 27]          768
│    │    └─ReLU: 3-55                   [1, 384, 27, 27]          [1, 384, 27, 27]          --
│    └─Sequential: 2-17                  [1, 384, 27, 27]          [1, 384, 27, 27]          --
│    │    └─Conv2d: 3-56                 [1, 384, 27, 27]          [1, 384, 27, 27]          1,327,488
│    │    └─BatchNorm2d: 3-57            [1, 384, 27, 27]          [1, 384, 27, 27]          768
│    │    └─ReLU: 3-58                   [1, 384, 27, 27]          [1, 384, 27, 27]          --
│    └─Sequential: 2-18                  [1, 384, 27, 27]          [1, 384, 27, 27]          --
│    │    └─Conv2d: 3-59                 [1, 384, 27, 27]          [1, 384, 27, 27]          1,327,488
│    │    └─BatchNorm2d: 3-60            [1, 384, 27, 27]          [1, 384, 27, 27]          768
│    │    └─ReLU: 3-61                   [1, 384, 27, 27]          [1, 384, 27, 27]          --
│    └─Sequential: 2-19                  [1, 384, 27, 27]          [1, 384, 27, 27]          --
│    │    └─Conv2d: 3-62                 [1, 384, 27, 27]          [1, 384, 27, 27]          1,327,488
├─CNN_DECODER: 1-4                       [1, 384, 27, 27]          [1, 32, 1, 1]             --
│    └─Sequential: 2-20                  [1, 384, 27, 27]          [1, 32, 25, 25]           --
│    │    └─Conv2d: 3-63                 [1, 384, 27, 27]          [1, 32, 25, 25]           110,624
│    └─Sequential: 2-21                  [1, 32, 25, 25]           [1, 32, 23, 23]           --
│    │    └─Conv2d: 3-64                 [1, 32, 25, 25]           [1, 32, 23, 23]           9,248
│    └─Sequential: 2-22                  [1, 32, 23, 23]           [1, 32, 11, 11]           --
│    │    └─Conv2d: 3-65                 [1, 32, 23, 23]           [1, 32, 11, 11]           9,248
│    └─Sequential: 2-23                  [1, 32, 11, 11]           [1, 32, 9, 9]             --
│    │    └─Conv2d: 3-66                 [1, 32, 11, 11]           [1, 32, 9, 9]             9,248
│    └─Sequential: 2-24                  [1, 32, 9, 9]             [1, 32, 7, 7]             --
│    │    └─Conv2d: 3-67                 [1, 32, 9, 9]             [1, 32, 7, 7]             9,248
│    └─Sequential: 2-25                  [1, 32, 7, 7]             [1, 32, 3, 3]             --
│    │    └─Conv2d: 3-68                 [1, 32, 7, 7]             [1, 32, 3, 3]             9,248
│    └─Sequential: 2-26                  [1, 32, 3, 3]             [1, 32, 1, 1]             --
│    │    └─Conv2d: 3-69                 [1, 32, 3, 3]             [1, 32, 1, 1]             9,248
│    └─Sequential: 2-27                  [1, 32, 1, 1]             [1, 32, 1, 1]             --
│    │    └─Conv2d: 3-70                 [1, 32, 1, 1]             [1, 32, 1, 1]             1,056
├─Sequential: 1-5                        [1, 32, 1, 1]             [1, 256, 1, 1]            --
│    └─Conv2d: 2-28                      [1, 32, 1, 1]             [1, 256, 1, 1]            8,448
===================================================================================================================
Total params: 22,859,328
Trainable params: 22,859,328
Non-trainable params: 0
Total mult-adds (Units.GIGABYTES): 16.56
===================================================================================================================
Input size (MB): 1.12
Forward/backward pass size (MB): 77.14
…
